…
Class 8: 1134 samples
Class 9: 2564 samples
Class 10: 787 samples
Class 11: 1625 samples
Class 12: 3745 samples
Class 13: 2147 samples
Class 14: 1398 samples
Class 15: 475 samples
Class 16: 2137 samples
Class 17: 219 samples
Class 18: 1189 samples
Class 19: 3324 samples
Class 20: 308 samples
Class 21: 448 samples
Class 22: 669 samples
Class 23: 1194 samples
Class 24: 826 samples
Class 25: 4137 samples
tensor([1032, 1149,  426,  841,  337, 1942,  430, 2459, 1134, 2564,  787, 1625,
        3745, 2147, 1398,  475, 2137,  219, 1189, 3324,  308,  448,  669, 1194,
         826, 4137])
Sequential(
  (0): Conv2d(3, 64, kernel_size=(3, 3), stride=(1, 1), padding=(1, 1))
  (1): ReLU(inplace=True)
  (2): Conv2d(64, 64, kernel_size=(3, 3), stride=(1, 1), padding=(1, 1))
  (3): ReLU(inplace=True)
  (4): MaxPool2d(kernel_size=2, stride=2, padding=0, dilation=1, ceil_mode=False)
  (5): Conv2d(64, 128, kernel_size=(3, 3), stride=(1, 1), padding=(1, 1))
  (6): ReLU(inplace=True)
  (7): Conv2d(128, 128, kernel_size=(3, 3), stride=(1, 1), padding=(1, 1))
  (8): ReLU(inplace=True)
  (9): MaxPool2d(kernel_size=2, stride=2, padding=0, dilation=1, ceil_mode=False)
  (10): Conv2d(128, 256, kernel_size=(3, 3), stride=(1, 1), padding=(1, 1))
  (11): ReLU(inplace=True)
  (12): Conv2d(256, 256, kernel_size=(3, 3), stride=(1, 1), padding=(1, 1))
  (13): ReLU(inplace=True)
  (14): Conv2d(256, 256, kernel_size=(3, 3), stride=(1, 1), padding=(1, 1))
  (15): ReLU(inplace=True)
  (16): MaxPool2d(kernel_size=2, stride=2, padding=0, dilation=1, ceil_mode=False)
  (17): Conv2d(256, 512, kernel_size=(3, 3), stride=(1, 1), padding=(1, 1))
  (18): ReLU(inplace=True)
  (19): Conv2d(512, 512, kernel_size=(3, 3), stride=(1, 1), padding=(1, 1))
  (20): ReLU(inplace=True)
  (21): Conv2d(512, 512, kernel_size=(3, 3), stride=(1, 1), padding=(1, 1))
  (22): ReLU(inplace=True)
  (23): MaxPool2d(kernel_size=2, stride=2, padding=0, dilation=1, ceil_mode=False)
  (24): Conv2d(512, 512, kernel_size=(3, 3), stride=(1, 1), padding=(1, 1))
  (25): ReLU(inplace=True)
  (26): Conv2d(512, 512, kernel_size=(3, 3), stride=(1, 1), padding=(1, 1))
  (27): ReLU(inplace=True)
  (28): Conv2d(512, 512, kernel_size=(3, 3), stride=(1, 1), padding=(1, 1))
  (29): ReLU(inplace=True)
  (30): MaxPool2d(kernel_size=2, stride=2, padding=0, dilation=1, ceil_mode=False)
  (31): Flatten(start_dim=1, end_dim=-1)
  (32): Linear(in_features=25088, out_features=4096, bias=True)
  (33): ReLU(inplace=True)
  (34): Dropout(p=0.5, inplace=False)
  (35): Linear(in_features=4096, out_features=26, bias=True)
  (36): Sigmoid()
)
7037
Epoch 1/100.. Learning rate:depends.. Train loss: 0.2282.. Train acc: 0.2490.. Val loss: 0.2145.. Val acc: 0.2504
7037
Epoch 2/100.. Learning rate:depends.. Train loss: 0.2165.. Train acc: 0.2443.. Val loss: 0.2135.. Val acc: 0.2316
7037
Epoch 3/100.. Learning rate:depends.. Train loss: 0.2155.. Train acc: 0.2354.. Val loss: 0.2116.. Val acc: 0.2312
…
